…
 𝑃 = ∑ 𝑃 ௜ 

> ଶ଴
> ௜ୀଵ

  

The total parameter count is P, where P୧ denotes parameters in 

the layer 𝑖 (convolutional kernels, biases, and dense weights). 

PD36‑C has: 1,170,432 (~ 93.6%) Convolutional, and 65,792 

(~ 5.3%) Dense parameters. Table II presents Layers with 

their type, output shape, and number of parameters.                                                                                                                                      

> TABLE II. MODEL ARCHITECTURE PD36-C
> Layers/types/Shapes/Parameters
> Layer Type Output Shape Parameter
> plant_augmentation Sequential (224, 224, 3) 0
> rescale_0_1 Rescaling (224, 224, 3) 0
> conv2d Conv2D (224, 224, 3 2)864
> Batch_normalizatio
> n
> BatchNormaliza
> tion
> (224, 224, 32) 128
> activation Activation (224, 224, 3 2)0
> conv2d _1 Conv2D (224, 224, 3 2)9,216
> Batch_normalizatio
> n_1
> BatchNormaliza
> tion
> (224, 224, 32) 128
> Activation _1 Activation (224, 224, 3 2)0
> max_pooling2d MaxPooling2D (112 ,112 , 3 2)0
> conv2d _2 Conv2D (112 ,112 ,64 )18,432
> Batch_normalizatio
> n_2
> BatchNormaliza
> tion
> (112, 112, 64) 256
> Activation _2 Activation (112 ,112 ,64 )0
> Layers/types/Shapes/Parameters
> Layer Type Output Shape Parameter
> conv2d _3 Conv2D (112 ,112 ,64 )36,864
> Batch_normalizatio
> n_3
> BatchNormaliza
> tion
> (112, 112, 64) 256
> Activation _3Activation (112 ,112 ,64 )0
> max_pooling2d _1 MaxPooling2D (56 ,56 ,64 )0
> conv2d _4Conv2D (56 ,56 ,128 )73,728
> Batch_normalizatio
> n_4
> BatchNormaliza
> tion
> (56, 56, 128) 512
> Activation _4Activation (56 ,56 ,128 )0
> conv2d _5 Conv2D (56 ,56 ,128 )147,456
> Batch_normalizatio
> n_5
> BatchNormaliza
> tion
> (56, 56, 128) 512
> Activation _5Activation (56 ,56 ,128 )0
> max_pooling2d _2MaxPooling2D (28 ,28 ,128 )0
> conv2d _6 Conv2D (28 ,28 ,256 )294,912
> Batch_normalizatio
> n_6
> BatchNormaliza
> tion
> (28, 28, 256) 1,024
> Activation _6Activation (28 ,28 ,256 )0
> conv2d _7 Conv2D (28 ,28 ,256 )589,824
> Batch_normalizatio
> n_7
> BatchNormaliza
> tion
> (28, 28, 256) 1,024
> Activation _7Activation (28 ,28 ,256 )0
> max_pooling2d _3MaxPooling2D (14 ,14 ,256 )0
> dropout Dropout (14 ,14 ,256 )0
> global_average_poo
> ling2d
> GlobalAverage
> Pooling2D
> 256 0
> dense Dense 256 65,792
> dropout_1 Dropout 256 0
> predictions Dense 38 9,766
> Trainable params 1,248,774
> Non-trainable
> params
> 1,920
> TOTAL --1,250,694

The proposed CNN architecture comprises 18 trainable layers 
…
